{"modelTopology":{"class_name":"Sequential","config":[{"class_name":"LSTM","config":{"units":4,"activation":"tanh","recurrent_activation":"hard_sigmoid","use_bias":true,"kernel_initializer":{"class_name":"VarianceScaling","config":{"scale":1,"mode":"fan_avg","distribution":"normal","seed":null}},"recurrent_initializer":{"class_name":"Orthogonal","config":{"gain":1,"seed":null}},"bias_initializer":{"class_name":"Zeros","config":{}},"unit_forget_bias":null,"kernel_regularizer":null,"recurrent_regularizer":null,"bias_regularizer":null,"activity_regularizer":null,"kernel_constraint":null,"recurrent_constraint":null,"bias_constraint":null,"dropout":0,"recurrent_dropout":0,"implementation":null,"return_sequences":false,"return_state":false,"go_backwards":false,"stateful":false,"unroll":false,"name":"lstm_LSTM1","trainable":true,"batch_input_shape":[null,12,1],"dtype":"float32"}},{"class_name":"Dropout","config":{"rate":0.022,"noise_shape":null,"seed":null,"name":"dropout_Dropout1","trainable":true}},{"class_name":"Dense","config":{"units":3,"activation":"relu","use_bias":true,"kernel_initializer":{"class_name":"VarianceScaling","config":{"scale":1,"mode":null,"distribution":null,"seed":null}},"bias_initializer":{"class_name":"Zeros","config":{}},"kernel_regularizer":null,"bias_regularizer":null,"activity_regularizer":null,"kernel_constraint":null,"bias_constraint":null,"name":"dense_Dense1","trainable":true}}],"keras_version":"tfjs-layers 0.9.1","backend":"tensor_flow.js"},"weightsManifest":[{"paths":["weights.bin"],"weights":[{"name":"lstm_LSTM1/kernel","shape":[1,16],"dtype":"float32"},{"name":"lstm_LSTM1/recurrent_kernel","shape":[4,16],"dtype":"float32"},{"name":"lstm_LSTM1/bias","shape":[16],"dtype":"float32"},{"name":"dense_Dense1/kernel","shape":[4,3],"dtype":"float32"},{"name":"dense_Dense1/bias","shape":[3],"dtype":"float32"}]}]}